iOS-demo/DigitClassifier/TFLLite/mnist.tflite (tflite, 842244 bytes, 8 tensors)

arith.constant f4 [128]
00000000: e1a3 87bd 4918 353e 29d9 e4bc 74ea 863d
00000010: b1ee c83d 8da8 053d be75 10bd fdd4 933d
00000020: ebfc 7b3d 0e53 603c 38fb 5abd e6bf 263e
00000030: 3667 ba3c f868 973c 92c4 063e d059 973d
00000040: 403a 2dbd 413c 85bd 67c8 abbd 1b07 b3bb
00000050: 1e47 a7bd e54c dbbb 4fa5 0f3d 9ec7 103e
00000060: 5b0f 1fbd 713d 2dbd 15ad 8abd 960c 063d
00000070: 659c 4b3e d3e4 a33d a196 ea3d 4ef1 243d
00000080: 9ec2 b0bd 3be3 ed3d afcd ca3d c8a2 e63c
00000090: c4f1 1e3a 1cd2 93bd 40fb 923c 4726 b73c
000000a0: c740 223d 4527 bd3d 7b96 b9bd 147e 0f3d
000000b0: 4a71 8b3b b9e5 f03d fc64 2d3d 890f 0e3d
000000c0: 904a 7dbc 51ac 1e3d 7c67 463d 7e96 f23d
000000d0: aeb1 753d 8b4d ed3d 566a e03d 1d33 493d
000000e0: a593 593d 2456 49bd 3946 d03c 9495 f1bc
000000f0: b6e2 29bc d879 673b d64d 163d edea bdbd
00000100: 2339 91bc 7519 013e 3849 8c3d 30df edb9
00000110: 7505 3f3c 18d2 3cbb bf7a 87bd c90d 3e3d
00000120: 9253 673c 85ab 873d f671 32bd 3bc3 b83c
00000130: 2081 b3bd d91e 153c a003 843d a1e0 f43d
00000140: 3284 e93c fb2a 2e3d d84d a83c 8079 803c
00000150: ef30 683c 379d c63d 432d b0bd cebe 843d
00000160: ae3c 7fbc e9c3 b53d 62df c43d 216b 8bbd
00000170: bc4d 22bd 846f 063d d046 abbb 18d9 603d
00000180: 92aa 353d 52f1 8d3d 1820 563d 5190 723d
00000190: ed22 963d dc27 0cbc 915f 103d 4482 403d
000001a0: 7358 f03b b1b3 43bd 716e 553b 89b5 083c
000001b0: c858 9b3d 17d4 6b3b b092 653d b61f d5bc
000001c0: 2ec8 f9bc 95a0 5d3c 9c8d e53d c261 98bc
000001d0: 40df 1cbe b23e 9cbc 56f5 9b3d 7003 033d
000001e0: aaec 983b 47d3 8dbc 3495 7bbc 2344 a33c
000001f0: 22c8 05bd baee d83c faf4 18bc 356d 423d
-0.06623054 0.17685045 -0.027935581 0.06587687 0.09811152 0.032631446 -0.035268538 0.07218359
0.0615205 0.013691677 -0.053462237 0.16284141 0.022754293 0.01848267 0.13160923 0.07390177
-0.04229188 -0.06505633 -0.08387833 -0.0054634935 -0.081678614 -0.006692516 0.03506976 0.14138648
-0.038833003 -0.042294923 -0.06771294 0.032726847 0.19883879 0.08002629 0.114545114 0.04026919
-0.0863087 0.116156064 0.09902512 0.028153792 0.00060632476 -0.072178096 0.017942071 0.02235712
0.039612558 0.09236006 -0.09061905 0.035032347 0.0042554485 0.11762566 0.042332634 0.034682784
-0.015459672 0.038738552 0.048438534 0.1184511 0.0599839 0.11587056 0.10957782 0.04912101
0.05311932 -0.049154416 0.02542411 -0.02949027 -0.0103689935 0.0035320427 0.036695324 -0.09273324
-0.01772744 0.12607367 0.06849903 -0.0004537045 0.011659016 -0.002881175 -0.06615209 0.046399865
0.014119046 0.06624512 -0.043565713 0.02255403 -0.08764863 0.009101593 0.06446004 0.11956907
0.028505418 0.042521458 0.020544931 0.015682936 0.014171823 0.09697955 -0.08602383 0.064817056
-0.015578432 0.088752575 0.096129194 -0.068075426 -0.039624915 0.032821193 -0.0052269474 0.054894537
0.04435212 0.06930794 0.0522767 0.059219662 0.0733088 -0.008554425 0.03524739 0.04699923
0.0073347627 -0.04777879 0.003256705 0.008344063 0.07585293 0.003598457 0.056048095 -0.026016098
-0.03049096 0.013527055 0.112086505 -0.018601302 -0.15319538 -0.019072864 0.076151535 0.0319857
0.0046668844 -0.017312659 -0.015355397 0.019929951 -0.032661565 0.026481021 -0.009335751 0.04746743

arith.constant1 f4 [784, 128]
00000000: 009d 62ba 01a2 953d 3a6c 3d3d 3fe3 52bd
00000010: 43e3 a33d 7169 8b3d 9218 cebc e476 5abd
00000020: aa76 9fbd c0f4 61bd d834 a13c 617f 883d
00000030: 7025 61bc d038 ae3b c27b a8bc f58a 1cbd
00000040: 3445 19bd b4bb 3cbd 80d9 003b c9ce 993d
00000050: c05c 7b3b 008a 35bc 771c 2bbd 88ee 78bd
00000060: 587c 213d 03a1 22bd 3f8b 8d3d aacb 393d
00000070: 5a30 423d 6717 13bd 0047 fa3b 0c1e fdbc
00000080: 2071 2dbc af8b 8fbd a83a b1bc 32d6 7ebd
00000090: 7359 85bd fe37 583d 1b00 a23d 9be8 96bd
000000a0: 1016 843b 932f a03d 12f0 fbbc 1a3b 583d
000000b0: c281 6cbd f0c1 b7bb 248b 59bd dff2 3bbd
000000c0: 2b7e 833d 28f3 913c b3af 67bd 8606 52bd
000000d0: b767 853d c241 363d 46e7 103d 4a80 35bd
000000e0: c327 82bd 042a d3bc 7003 8cbc e8ce eabc
000000f0: f8e7 0b3c d435 113d c0e5 edba 4845 033d
00000100: efb7 833d 3346 a43d 3432 44bd 6cf9 c83c
00000110: 0982 47bd 4b0d a43d 3818 023d 660a a0bc
00000120: 93d1 29bd 1b06 9c3d 16ba 9dbc fee2 90bd
00000130: 9679 41bd 00b2 20bb 9bd4 9c3d 65b2 8e3d
00000140: 5d54 a2bd 5f4c 95bd 8822 96bd c864 21bd
00000150: 24f3 96bd e0e1 8cbd b2c1 133d 598f a03d
00000160: 5ade 50bd 0231 6a3d a84e 493c eaab 613d
00000170: 16d4 1a3d 403f 81bc 34f4 873c 6b3b a23d
00000180: 8223 b6bc d686 26bd 6a65 293d 28ba b4bc
00000190: 427b 88bd dea2 bdbc 789c 413c e08b 783c
000001a0: 4864 97bc 0c2b 36bd 9aaf c0bc 2239 9abd
000001b0: 8819 043d b4b8 a83c 7961 9bbd 1096 e6bc
000001c0: f6a0 4bbd 3b04 81bd 501a e9bb b1c8 a23d
000001d0: 28a5 6ebc c087 a9bb e81a 23bc aea0 77bd
000001e0: 7240 4c3d 23c5 8bbd ebf6 893d a6b4 463d
000001f0: 063f 70bd da1d 95bd 71e4 a5bd cf11 a43d
00000200: c8c8 2f3c aaa6 88bd 3329 9c3d 4084 e93c
00000210: d3be 8e3d 2081 473b de70 713d 123c 7e3d
00000220: 1834 4fbd 89de a4bd a663 2c3d e95b 81bd
00000230: bed5 593d 2e4c ebbc 33bb 9bbd 1d08 843d
00000240: 516c 8ebd 8482 58bd a0bf 843b b527 8f3d
00000250: 1a98 5a3d bac8 733d a980 12bd 706f d43b
00000260: 2072 3ebd 20af 1b3c b3ab 1bbd e8d0 0c3d
00000270: 6c27 293d de78 b9bc 2b84 7abd ac47 78bd
00000280: 7b34 813d 0098 5fbc 4bee 823d 5882 4cbd
00000290: 15c7 12bd 68f5 293c 68c8 a83c 17a9 40bd
000002a0: cb4e 03bd 6ae0 86bd 87a8 863d 672d a43d
000002b0: 18d9 68bd 0fa0 2dbd 8aac 6bbd 68ef 4fbc
000002c0: 6015 d63c 5298 513d 4dfe 8a3d 90ba 5ebc
000002d0: fa0b c7bc 4846 0dbc 5238 1bbd b4d0 103d
000002e0: d0cd 55bd 76d2 793d 08c7 173c e768 a4bd
000002f0: c094 80bc 0697 723d e005 333b b459 a73c
00000300: b1a8 8abd c087 8dba 58fa 5cbc e5c7 4bbd
00000310: 2f5a 14bd c0af 4d3b aac3 433d 9043 da3b
00000320: 1958 43bd 37d5 833d 9ade 1c3d aad1 783d
00000330: a05e d23c c8b3 51bc 2073 fd3c 5f39 9c3d
00000340: 372c 8a3d e650 2abd aa4b 0d3d 345d d83c
00000350: eaa2 703d 7713 923d ac10 083d cdb6 24bd
00000360: 4a98 653d b724 8c3d 2b6c 89bd a460 92bd
00000370: a0e5 45bd 3cfc 243d 2ef1 9bbd dcf5 1f3d
00000380: a0a9 063b 16d5 303d f0e7 9f3b 3845 1fbc
00000390: 80d0 36bb f474 2d3d 9b72 4bbd 10f9 4f3c
000003a0: a2ae e9bc d041 b6bb 8060 8cba 2c8c ff3c
000003b0: f271 9abc f47c b73c 103f 5bbc e45a ca3c
000003c0: f50b 863d 07b1 9a3d 88ce d13c 501f 6ebc
000003d0: 1201 64bd aa7c 573d a66d 3a3d 4c47 c03c
000003e0: 9042 f03b ccd1 b4bc a011 9d3c 20d3 ef3b
000003f0: 3026 af3b c983 9e3d 4886 f7bc 0004 fa3b
-0.00086446106 0.073062904 0.04624579 -0.05148625 0.08002331 0.06807221 -0.0251582 -0.05333604
-0.07786305 -0.055165052 0.019678518 0.066649206 -0.013741836 0.005316831 -0.020566825 -0.038218457
-0.037419513 -0.046077445 0.001966089 0.07510144 0.0038354844 -0.011080265 -0.041775193 -0.060774356
0.039425224 -0.039704334 0.06911325 0.045360245 0.047409393 -0.03591099 0.0076378584 -0.030898117
-0.010586053 -0.070090644 -0.021634415 -0.06221599 -0.06511202 0.052787773 0.07910176 -0.07368585
0.0040309504 0.07821574 -0.030754123 0.05279074 -0.057740934 -0.005607836 -0.05311121 -0.045885917
0.06420549 0.017816141 -0.056564044 -0.051275752 0.06513923 0.044496305 0.03537681 -0.0443118
-0.0635524 -0.02577687 -0.017091483 -0.028663114 0.008539192 0.035451725 -0.0018150136 0.032048494
0.06431567 0.08021202 -0.04789944 0.024532996 -0.048707996 0.08010348 0.031761378 -0.019536208
-0.04145963 0.07618352 -0.019253772 -0.07074545 -0.047235094 -0.0024520159 0.07657739 0.0696762
-0.07926247 -0.07289957 -0.07330805 -0.039402753 -0.07370594 -0.0687902 0.036073394 0.078398414
-0.0509933 0.057175644 0.0122868195 0.05509559 0.037799917 -0.01577723 0.016595937 0.07921489
-0.022233728 -0.040655933 0.04135648 -0.022061422 -0.066641346 -0.02314895 0.01181709 0.015170068
-0.018480435 -0.044474646 -0.023521233 -0.075304285 0.03225091 0.020595886 -0.07586951 -0.028147727
-0.04971405 -0.06299635 -0.0071137324 0.07948435 -0.0145657435 -0.0051736534 -0.009955145 -0.06045597
0.049866147 -0.0682471 0.06736549 0.048512124 -0.058653854 -0.07281084 -0.08100212 0.08011209
0.010729022 -0.06672414 0.076250456 0.028505445 0.069699906 0.0030441955 0.05894553 0.062069006
-0.05058679 -0.08050258 0.04208722 -0.063163586 0.053182356 -0.028722849 -0.07604065 0.0644686
-0.069542535 -0.052858844 0.004051164 0.069899954 0.05336771 0.0595176 -0.03576723 0.006483011
-0.046495557 0.009502202 -0.038005542 0.034378916 0.04129736 -0.022640642 -0.0611612 -0.060615227
0.06308838 -0.0136470795 0.06393107 -0.049928993 -0.03583439 0.010373451 0.020603374 -0.047036257
-0.032057565 -0.06585772 0.06575113 0.08016472 -0.05684766 -0.042388972 -0.057537593 -0.012691356
0.02613324 0.051170655 0.06786785 -0.013594285 -0.024297703 -0.008622713 -0.037895508 0.035355285
-0.05219823 0.060991727 0.009263761 -0.08027821 -0.01569593 0.05922606 0.0027316734 0.020428516
-0.067704566 -0.0010797903 -0.013487421 -0.04975118 -0.03621882 0.0031385273 0.04779402 0.006660886
-0.04769144 0.06437152 0.038298227 0.060746826 0.025679886 -0.012799211 0.030938685 0.0762813
0.067467146 -0.041581057 0.034495987 0.02641163 0.058749117 0.07132619 0.033219025 -0.040213395
0.056053437 0.0684294 -0.067100845 -0.07147339 -0.04831469 0.040279612 -0.07614361 0.03905283
0.0020547882 0.043171965 0.004879944 -0.009721093 -0.0027895272 0.042347863 -0.049669843 0.0126936585
-0.028525654 -0.0055620447 -0.0010709912 0.031194769 -0.018853161 0.02239845 -0.0133817345 0.024701543
0.065452494 0.075532965 0.025611177 -0.014533833 -0.055665083 0.052609123 0.045514725 0.023471497
0.0073321536 -0.022072695 0.019173443 0.0073188692 0.0053451285 0.0773998 -0.030215397 0.0076298714

arith.constant2 f4 [11]
00000000: 71a3 4dbe 5535 f83d ec49 d33b 48c2 58bd
00000010: fb12 f63c 3796 613e 6070 4b3d 4279 a03d
00000020: 3bec 90bd d8a9 aabd d50c c9bd
-0.20081879 0.12119547 0.006448021 -0.052919656 0.030038347 0.22029959 0.049667716 0.07835628
-0.070763074 -0.083331764 -0.09816901

arith.constant3 f4 [128, 11]
00000000: 2b9b 133e b0f8 02bd fc0c 0d3f c3ea 303e
00000010: c628 4bbe 9ae8 9cbe 61d8 d93d 9ef3 eaba
00000020: 832e 3b3e 1d1d adbe d029 09bd 6e71 dcbe
00000030: 7fbd 31be b65e 1e3e 775b 10bf 886d f93e
00000040: 5eb7 e53e e304 dc3b 64d3 d73d 865b fa3e
00000050: 62bd cbbd c888 f33c 5705 d03d 1e7c 40be
00000060: 06e4 3abf a831 fa3d 5c24 2ebd 107d e13e
00000070: 5d64 aa3e 1234 88bd 367e 5d3e 9642 be3e
00000080: 8b16 d1bd 54d2 37be be07 4dbe 629b d6be
00000090: 2ce7 983e de21 d23d 6cc1 0e3f 99d6 b6be
000000a0: 790b b0be 5ec3 d93e d0cb 133e b82e 3f3d
000000b0: 68c5 09be 8db9 6fbd 4f33 003f 354a b1bd
000000c0: ac4a 8f3e d776 0e3e 23ec 81bc c132 91bd
000000d0: 482a 3fbf ae9c 003b 8d8d a0bc ba0f adbe
000000e0: e278 84be ccbb 813e 737c 193e 8ab7 a13d
000000f0: 54fc 3a3e eca2 a03d 6fc9 9c3e c244 8c3e
00000100: a365 18bf 31ee c93d 56ec 75bc d667 de3e
00000110: af6f fcbe f3ad 733e ebc2 133e 8f0a 3dbe
00000120: e623 b53e 2a90 19be b391 e4be 3330 a4be
00000130: e925 10bc 0958 75be 18b7 9d3e e884 9cbe
00000140: 457c f4be 1193 133f 95c4 f83d 2bb7 92be
00000150: 609a ad3e bc8f 42be 3ad8 b23d 6cec 1a3e
00000160: 4a25 2c3e 0f53 3cbe 3b32 92be 2f99 ae3c
00000170: 4514 a13d 7cce 053f 95b8 f2be 82c2 c73d
00000180: e8ed abbe 8d91 a83e afbf 17bd 8a42 cabe
00000190: 8d73 09be e41f 9dbb aad0 83bd 6de1 263d
000001a0: 5c47 053e ddbd 4dbe a0aa eebd a076 ac3e
000001b0: d874 063e 1943 f53d 3f36 b03e fcff a6be
000001c0: 3d64 f73c 8bed e9be cf4d 0c3d f8b2 9bbe
000001d0: eb34 313e 844e c2be 188a 043f aafc 82bc
000001e0: 2433 f13d c4df 8cbe 12db 573e 92ac 9a3d
000001f0: 5286 cdbd 337c e5be 7982 e63e eed5 df3d
00000200: ccfd 1a3e e614 04bf 343e 543d 0ad1 ae3c
00000210: e507 68be 3eee 5f3d 381a 953e 599b 0cbe
00000220: 09c5 9ebd 94cd 1abe d426 31be 5fe4 8a3e
00000230: e5e6 c63d ef6d 033e d72b 76bd a86e 45be
00000240: 6e51 5a3e 6f1f 673e 31d1 a13d 4970 1bbe
00000250: a51c 78be 8f33 213e 42d5 bbbe 8c67 a83e
00000260: ef4e 683e e6b7 6bbe a4f7 a7be 420e c13d
00000270: a184 c93e f4e2 bebe 3339 1f3e 56dc 223e
00000280: 61d2 6e3e 6870 4a3e c0ef d93c cc0c 1bbf
00000290: 8a1f 34be 908c b63e d6c2 d3be 3f37 823e
000002a0: 91ab d0be ef8b 6e3e 4b4f 1d3e baff c6be
000002b0: 3c42 d43e 13d8 5abd e678 c9ba 0adf 13bd
000002c0: 1818 d8be fe26 01be e27c 173e 06a1 02bf
000002d0: 2cc8 b43e 98b2 e1be 1fbe f0bd adc2 52be
000002e0: ca0e dcbd 04f1 163f e903 39be e0ed aebe
000002f0: fee8 1cbd 6350 ccbd 2093 e23e 161d 01be
00000300: 205d 883e 6598 f6be ae54 27bf d92b 163f
00000310: d1fd 973d 9196 8bbd 9aa2 c13e 0144 af3d
00000320: 199b 933e a0ec 4cbc a8f0 adbe a3bf 1fbf
00000330: d216 2dbe f592 9a3d 63e8 be3d c07d ad3c
00000340: f456 793d 2daa 60bc 9dfc 2bbe b785 6dbe
00000350: 6ab8 0cbe 85d9 d43e 86e5 b5be b2ca bf3e
00000360: 08e6 67be 880f 33bd 46b0 58be f9da 423d
00000370: 2c35 013f a594 913d e523 94bd 8054 fcbe
00000380: b296 aebd 3a4c 4dbf d0bb 853c 5948 b73e
00000390: 7082 0fbe f91f 953e 51a5 263e 301f 33be
000003a0: aa6e eebd 0103 463e c1ad ccbd 2cfb 43bf
000003b0: 434e 453f 80d0 393d a064 103d e81b c9be
000003c0: 1507 1a3f f35a 393e f565 33be f0d5 50be
000003d0: 6e5c 433e 0bbd fa3e d782 3dbe 76f7 2cbe
000003e0: 46c1 15be 58c3 233e fe82 9b3e a6f1 e0bd
000003f0: 9f2d 33bd c25c aa3d cd30 25be 7cce ecbd
0.1441466 -0.031975448 0.5509794 0.17277054 -0.19839773 -0.3064621 0.10636974 -0.0017925387
0.18279462 -0.33811274 -0.03348714 -0.4305529 -0.17357443 0.15465817 -0.56389564 0.48716378
0.4486646 0.0067144497 0.105383664 0.48897952 -0.09948231 0.029728308 0.101572685 -0.18797347
-0.73004186 0.122165024 -0.042515144 0.44040728 0.33279696 -0.066505566 0.21630177 0.37160176
-0.10209378 -0.17951328 -0.20022485 -0.41915423 0.2986387 0.10260366 0.5576389 -0.357106
-0.34383753 0.42531866 0.14433217 0.046675414 -0.13454211 -0.058526564 0.5007829 -0.08656732
0.27986658 0.13912521 -0.01585967 -0.07089759 -0.7467389 0.0019624638 -0.019598747 -0.3380106
-0.25873476 0.2533859 0.1498888 0.078963354 0.18260318 0.07843575 0.30622432 0.27396208
-0.59530085 0.098598845 -0.01500996 0.43438596 -0.49303958 0.23796825 0.14429824 -0.18461059
0.3537895 -0.149964 -0.4464241 -0.32068023 -0.008798101 -0.23959364 0.30803752 -0.3057015
-0.4775106 0.5764628 0.1214687 -0.2865537 0.3390684 -0.19000143 0.08732648 0.1512925
0.168111 -0.1839106 -0.28553948 0.021313278 0.07865194 0.52268195 -0.4740645 0.09753896
-0.33579946 0.32923546 -0.037048038 -0.3950389 -0.13422985 -0.0047950614 -0.06436284 0.040742327
0.13015503 -0.20091958 -0.11653638 0.33684254 0.1313051 0.119756885 0.34416386 -0.32617176
0.030199165 -0.45689043 0.03425389 -0.3040998 0.17305343 -0.37950528 0.51773214 -0.01598962
0.117773324 -0.2751447 0.21079662 0.075524464 -0.10035385 -0.4482132 0.45021418 0.10929476
0.15135878 -0.5159439 0.051817134 0.021339912 -0.22659262 0.054670565 0.29121566 -0.13731135
-0.07752425 -0.15117484 -0.17299968 0.27127358 0.097120084 0.12834905 -0.060100403 -0.19280493
0.21320125 0.22570585 0.07901228 -0.15179552 -0.24229677 0.15742324 -0.3668614 0.328915
0.22686361 -0.2301937 -0.32806122 0.094265476 0.39359 -0.37282526 0.15549164 0.15904364
0.2332244 0.19769442 0.02660358 -0.605664 -0.17590156 0.35654116 -0.41359586 0.25432774
-0.40755895 0.23295568 0.15362279 -0.3886698 0.41456783 -0.05342872 -0.0015371114 -0.03610138
-0.42205882 -0.1261253 0.14793733 -0.5102695 0.3530897 -0.4408157 -0.11755013 -0.20582075
-0.10745008 0.5896151 -0.18067898 -0.3416586 -0.038308136 -0.0997627 0.44252872 -0.12608752
0.2663355 -0.48163143 -0.65363586 0.58660656 0.074214585 -0.06815828 0.37819368 0.085578926
0.28829268 -0.012507588 -0.3397267 -0.6240179 -0.16903237 0.07547561 0.09321668 0.021178126
0.06087394 -0.013712448 -0.16795583 -0.2319554 -0.13742223 0.41572204 -0.35526675 0.37459332
-0.22646344 -0.043715984 -0.21160993 0.04757211 0.5047176 0.0710843 -0.07233409 -0.49283218
-0.085248366 -0.8019444 0.016324908 0.35797384 -0.14014602 0.29125956 0.16274 -0.17492366
-0.11642201 0.19337083 -0.099940784 -0.7655513 0.7707254 0.045364857 0.035252213 -0.39279103
0.60167056 0.181011 -0.17519362 -0.2039411 0.19078228 0.48972353 -0.18506943 -0.16891274
-0.14624509 0.15992486 0.30373377 -0.10983591 -0.04374468 0.083184734 -0.16131897 -0.11562821

arith.constant4 f4 [128]
00000000: eea9 1fb6 fdae 5536 cbbf 0136 1e52 6b38
00000010: 0215 a1b7 cd00 3db8 70fb 4838 74a2 0838
00000020: a7c5 3637 2827 8437 b403 ae38 dbb8 adb8
00000030: 59f8 5bb8 b2af a638 f2c9 e2b7 2cdd 5fb8
00000040: 10f4 6c38 d459 2b38 0afd 98b6 6974 bb38
00000050: 7ccc c137 987b e6b6 6ed1 b4b7 ba1b 81b8
00000060: 6bf0 ddb7 2601 0e38 34d9 48b9 f380 31b8
00000070: 72dd 0a38 1a5b a1b8 82df 8237 6ba7 6837
00000080: 3f6e 9037 2e45 cb38 4493 4438 cc39 72b8
00000090: 8824 0ab8 ded6 1e37 c105 fe37 38f8 d4b4
000000a0: 7d54 ceb8 a62d 24b8 2986 fd38 f0a1 7636
000000b0: dbe7 d737 f3fb 0438 72dd 3fb8 589e 3fb7
000000c0: 863f 4c37 f740 b138 5cf6 6138 eeb2 41b9
000000d0: 38d0 08b7 1207 54b9 7001 07b7 d235 2ab8
000000e0: 0e21 0eb8 6e3c 9c37 b640 22b9 89ad c5b6
000000f0: 59ce d038 a55e aab6 d9d3 98b7 b9ee b038
00000100: 14be fe35 0578 7b38 97b8 8bb7 7d16 24b7
00000110: 6966 2637 7107 8538 6245 0638 f28d 3438
00000120: d3e7 1fb8 7b47 64b7 8087 88b8 025e 4538
00000130: 72dc adb7 9752 e6b8 212d 28b8 97cd 80b6
00000140: d70b 68b8 6b91 9438 9b5e 2fb7 1964 2f38
00000150: f75a dfb7 e92b dfb7 f727 52b6 b58f 74b7
00000160: 7868 7638 0113 a4b6 8229 9037 fc86 0bb8
00000170: 30d2 9bb6 d22f 9636 3d34 a4b8 4eb5 b4b6
00000180: 31ab a337 8431 c837 4012 33b8 8635 91b7
00000190: bcb5 5e37 3f46 2237 a148 e9b7 ad76 05b8
000001a0: d873 28b7 8b04 2cb7 5fd7 94b7 a267 ee38
000001b0: d7ac 2138 2185 2436 1077 1c37 428c c5b8
000001c0: 6e0d ffb8 c0ac 0438 972c 8e36 5f21 83b8
000001d0: 7770 c3b7 1e8b e137 7df3 e5b7 8679 8cb6
000001e0: 3ea3 aeb7 548d 1f38 8e31 6bb6 429d 0fb6
000001f0: 44bb 8a38 1b01 1138 9e3e d9b5 c386 efb6
-2.3791758e-06 3.184133e-06 1.9334136e-06 5.6104844e-05 -1.9202478e-05 -4.5061857e-05 4.7917885e-05 3.2576223e-05
1.0894065e-05 1.575386e-05 8.297656e-05 -8.283715e-05 -5.244496e-05 7.9482226e-05 -2.7035338e-05 -5.3373325e-05
5.6494086e-05 4.0853236e-05 -4.5594106e-06 8.938538e-05 2.3102613e-05 -6.8689224e-06 -2.1555195e-05 -6.156364e-05
-2.6457206e-05 3.3856508e-05 -0.00019154401 -4.2320182e-05 3.3108e-05 -7.694047e-05 1.5601287e-05 1.3867258e-05
1.7217475e-05 9.69268e-05 4.6867193e-05 -5.7751124e-05 -3.2935786e-05 9.4675615e-06 3.0281839e-05 -3.966868e-07
-9.8385826e-05 -3.914316e-05 0.000120889694 3.6751117e-06 2.5737963e-05 3.17059e-05 -4.5744186e-05 -1.1421354e-05
1.2174138e-05 8.452118e-05 5.387362e-05 -0.00018472571 -8.154711e-06 -0.0002022053 -8.046962e-06 -4.0581283e-05
-3.3886223e-05 1.8624789e-05 -0.0001547363 -5.8912597e-06 9.956648e-05 -5.077413e-06 -1.8218461e-05 8.4367995e-05
1.8979795e-06 5.995484e-05 -1.6656048e-05 -9.780398e-06 9.918215e-06 6.34332e-05 3.2012707e-05 4.304754e-05
-3.8124457e-05 -1.3606502e-05 -6.510224e-05 4.705601e-05 -2.072586e-05 -0.00010982638 -4.009635e-05 -3.838631e-06
-5.5324137e-05 7.084276e-05 -1.045284e-05 4.1816475e-05 -2.662603e-05 -2.6604119e-05 -3.13157e-06 -1.4576993e-05
5.8748265e-05 -4.889793e-06 1.7185466e-05 -3.3265896e-05 -4.643829e-06 4.4759154e-06 -7.8298595e-05 -5.3855247e-06
1.9510831e-05 2.3864915e-05 -4.2693922e-05 -1.731027e-05 1.32745445e-05 9.672308e-06 -2.7809585e-05 -3.1820196e-05
-1.0040552e-05 -1.0253057e-05 -1.7743265e-05 0.000113680275 3.854636e-05 2.4515396e-06 9.326046e-06 -9.419817e-05
-0.00012161849 3.163214e-05 4.2371207e-06 -6.2527826e-05 -2.3298182e-05 2.6886872e-05 -2.741231e-05 -4.1864723e-06
-2.0818432e-05 3.8040176e-05 -3.5046573e-06 -2.1400197e-06 6.615234e-05 3.4571724e-05 -1.6185984e-06 -7.1384434e-06

arith.constant5 f4 [784, 128]
00000000: 0000 0000 0000 0000 0000 0000 0000 0000
00000010: 0000 0000 0000 0000 0000 0000 0000 0000
00000020: 0000 0000 0000 0000 0000 0000 0000 0000
00000030: 0000 0000 0000 0000 0000 0000 0000 0000
00000040: 0000 0000 0000 0000 0000 0000 0000 0000
00000050: 0000 0000 0000 0000 0000 0000 0000 0000
00000060: 0000 0000 0000 0000 0000 0000 0000 0000
00000070: 0000 0000 0000 0000 0000 0000 0000 0000
00000080: 0000 0000 0000 0000 0000 0000 0000 0000
00000090: 0000 0000 0000 0000 0000 0000 0000 0000
000000a0: 0000 0000 0000 0000 0000 0000 0000 0000
000000b0: 0000 0000 0000 0000 0000 0000 0000 0000
000000c0: 0000 0000 0000 0000 0000 0000 0000 0000
000000d0: 0000 0000 0000 0000 0000 0000 0000 0000
000000e0: 0000 0000 0000 0000 0000 0000 0000 0000
000000f0: 0000 0000 0000 0000 0000 0000 0000 0000
00000100: 0000 0000 0000 0000 0000 0000 0000 0000
00000110: 0000 0000 0000 0000 0000 0000 0000 0000
00000120: 0000 0000 0000 0000 0000 0000 0000 0000
00000130: 0000 0000 0000 0000 0000 0000 0000 0000
00000140: 0000 0000 0000 0000 0000 0000 0000 0000
00000150: 0000 0000 0000 0000 0000 0000 0000 0000
00000160: 0000 0000 0000 0000 0000 0000 0000 0000
00000170: 0000 0000 0000 0000 0000 0000 0000 0000
00000180: 0000 0000 0000 0000 0000 0000 0000 0000
00000190: 0000 0000 0000 0000 0000 0000 0000 0000
000001a0: 0000 0000 0000 0000 0000 0000 0000 0000
000001b0: 0000 0000 0000 0000 0000 0000 0000 0000
000001c0: 0000 0000 0000 0000 0000 0000 0000 0000
000001d0: 0000 0000 0000 0000 0000 0000 0000 0000
000001e0: 0000 0000 0000 0000 0000 0000 0000 0000
000001f0: 0000 0000 0000 0000 0000 0000 0000 0000
00000200: 0000 0000 0000 0000 0000 0000 0000 0000
00000210: 0000 0000 0000 0000 0000 0000 0000 0000
00000220: 0000 0000 0000 0000 0000 0000 0000 0000
00000230: 0000 0000 0000 0000 0000 0000 0000 0000
00000240: 0000 0000 0000 0000 0000 0000 0000 0000
00000250: 0000 0000 0000 0000 0000 0000 0000 0000
00000260: 0000 0000 0000 0000 0000 0000 0000 0000
00000270: 0000 0000 0000 0000 0000 0000 0000 0000
00000280: 0000 0000 0000 0000 0000 0000 0000 0000
00000290: 0000 0000 0000 0000 0000 0000 0000 0000
000002a0: 0000 0000 0000 0000 0000 0000 0000 0000
000002b0: 0000 0000 0000 0000 0000 0000 0000 0000
000002c0: 0000 0000 0000 0000 0000 0000 0000 0000
000002d0: 0000 0000 0000 0000 0000 0000 0000 0000
000002e0: 0000 0000 0000 0000 0000 0000 0000 0000
000002f0: 0000 0000 0000 0000 0000 0000 0000 0000
00000300: 0000 0000 0000 0000 0000 0000 0000 0000
00000310: 0000 0000 0000 0000 0000 0000 0000 0000
00000320: 0000 0000 0000 0000 0000 0000 0000 0000
00000330: 0000 0000 0000 0000 0000 0000 0000 0000
00000340: 0000 0000 0000 0000 0000 0000 0000 0000
00000350: 0000 0000 0000 0000 0000 0000 0000 0000
00000360: 0000 0000 0000 0000 0000 0000 0000 0000
00000370: 0000 0000 0000 0000 0000 0000 0000 0000
00000380: 0000 0000 0000 0000 0000 0000 0000 0000
00000390: 0000 0000 0000 0000 0000 0000 0000 0000
000003a0: 0000 0000 0000 0000 0000 0000 0000 0000
000003b0: 0000 0000 0000 0000 0000 0000 0000 0000
000003c0: 0000 0000 0000 0000 0000 0000 0000 0000
000003d0: 0000 0000 0000 0000 0000 0000 0000 0000
000003e0: 0000 0000 0000 0000 0000 0000 0000 0000
000003f0: 0000 0000 0000 0000 0000 0000 0000 0000
0.0 0.0 0.0 0.0 0.0 0.0 0.0 0.0
0.0 0.0 0.0 0.0 0.0 0.0 0.0 0.0
0.0 0.0 0.0 0.0 0.0 0.0 0.0 0.0
0.0 0.0 0.0 0.0 0.0 0.0 0.0 0.0
0.0 0.0 0.0 0.0 0.0 0.0 0.0 0.0
0.0 0.0 0.0 0.0 0.0 0.0 0.0 0.0
0.0 0.0 0.0 0.0 0.0 0.0 0.0 0.0
0.0 0.0 0.0 0.0 0.0 0.0 0.0 0.0
0.0 0.0 0.0 0.0 0.0 0.0 0.0 0.0
0.0 0.0 0.0 0.0 0.0 0.0 0.0 0.0
0.0 0.0 0.0 0.0 0.0 0.0 0.0 0.0
0.0 0.0 0.0 0.0 0.0 0.0 0.0 0.0
0.0 0.0 0.0 0.0 0.0 0.0 0.0 0.0
0.0 0.0 0.0 0.0 0.0 0.0 0.0 0.0
0.0 0.0 0.0 0.0 0.0 0.0 0.0 0.0
0.0 0.0 0.0 0.0 0.0 0.0 0.0 0.0
0.0 0.0 0.0 0.0 0.0 0.0 0.0 0.0
0.0 0.0 0.0 0.0 0.0 0.0 0.0 0.0
0.0 0.0 0.0 0.0 0.0 0.0 0.0 0.0
0.0 0.0 0.0 0.0 0.0 0.0 0.0 0.0
0.0 0.0 0.0 0.0 0.0 0.0 0.0 0.0
0.0 0.0 0.0 0.0 0.0 0.0 0.0 0.0
0.0 0.0 0.0 0.0 0.0 0.0 0.0 0.0
0.0 0.0 0.0 0.0 0.0 0.0 0.0 0.0
0.0 0.0 0.0 0.0 0.0 0.0 0.0 0.0
0.0 0.0 0.0 0.0 0.0 0.0 0.0 0.0
0.0 0.0 0.0 0.0 0.0 0.0 0.0 0.0
0.0 0.0 0.0 0.0 0.0 0.0 0.0 0.0
0.0 0.0 0.0 0.0 0.0 0.0 0.0 0.0
0.0 0.0 0.0 0.0 0.0 0.0 0.0 0.0
0.0 0.0 0.0 0.0 0.0 0.0 0.0 0.0
0.0 0.0 0.0 0.0 0.0 0.0 0.0 0.0

arith.constant6 f4 [11]
00000000: f968 1a38 8eb1 cb37 1e82 1fb8 c0de 60b7
00000010: 0ab1 d038 497d 68b8 2fbd 5c37 5310 38b9
00000020: 66bd 8137 b5c4 c338 dced 42b4
3.6814225e-05 2.4282166e-05 -3.8029735e-05 -1.34033035e-05 9.951189e-05 -5.542979e-05 1.315707e-05 -0.00017553689
1.5466194e-05 9.334964e-05 -1.815419e-07

arith.constant7 f4 [128, 11]
00000000: 6be4 bbb4 851b 6937 22fb 18b7 7243 0e37
00000010: 7f7c 8236 5c7d 6db7 cb37 8536 f8db e0b6
00000020: 2692 3036 cf88 26b6 0cc5 75b3 201f 5037
00000030: 66a7 0fb5 6440 b0b7 406d 01b7 bd1a 4638
00000040: f21a 3eb8 be23 25b5 4041 dbb8 1930 49b6
00000050: e327 0139 77e9 85b3 73da e8b1 90ef a7af
00000060: db02 19b5 40d9 95b1 1bfe 8135 9277 8ab2
00000070: c52e b7b3 f80f 6ab1 1a37 23b4 e58b 0bb4
00000080: a47c 9aaf 1bae 0c36 8fe6 59b2 8b3e 74b7
00000090: 5781 28b5 f14f 8538 a955 01b6 cd6d 4bb6
000000a0: f8fb 34b8 574a feb4 97f7 f6b5 27da 3bb3
000000b0: d30a 9038 1b84 8d37 998d 76b8 0c7f 07b7
000000c0: 6636 2337 4997 15b8 aac0 3837 6879 8fb8
000000d0: fc92 38b7 e0f2 9e38 92fb 1eb4 6ba7 d335
000000e0: 8dc9 9a37 8a00 a6b7 0f56 61b6 61df b3b5
000000f0: 01bb 9ab7 97ed e037 9911 f8b6 9b36 5636
00000100: 6e54 be34 6707 89b3 6a38 c8b6 ae12 3138
00000110: 27ae 73b7 85d4 8d35 0f91 3738 2cd4 e2b7
00000120: eebd 8c37 50f9 71b8 b0a8 1e36 f7f7 58b5
00000130: 26f6 21b4 4c51 e9b6 b540 fb37 f97e 0eb8
00000140: d86b 87b7 f3cf 5a39 6515 ceb7 b440 ba36
00000150: 2860 8db9 7b7d 0b37 47ad cf38 cc36 77b4
00000160: 9331 f437 5991 5e37 1246 00b8 3180 92b6
00000170: 4f5e ac38 035f 13b8 eb91 89b6 bd85 1ab9
00000180: 5c67 4eb3 d8ab cb38 db16 bfb3 1725 b435
00000190: 59b7 c235 924e 6ab6 4de4 8cb6 ef09 0b38
000001a0: 6e00 a6b7 923a c4b5 c1e1 34b8 de35 f935
000001b0: 54e4 0f38 c466 26b3 a2a5 9435 1d9a 2937
000001c0: ae32 9bb7 09a9 6db7 13e8 9937 c17e 94b7
000001d0: 8210 a537 152c b9b7 41d4 bf37 eb12 d534
000001e0: 9067 86b3 d092 1a38 c2b4 0738 e114 fdb7
000001f0: 7b56 3a37 6b87 a739 78c4 bfb7 303d 3936
00000200: dc05 bcb9 a5de 19b7 b043 9a37 0bfc 3ab4
00000210: a74c 5db6 7b00 8c31 0f7f f635 9424 96b6
00000220: 02fb d138 aaf1 eab6 39f7 ad34 a50b fab8
00000230: 696c fc36 26fc ca37 79c8 e2b1 69c2 ee37
00000240: d981 3838 7b22 3eb8 27e6 01b8 c0dc f238
00000250: c265 45b8 9945 7137 7b6d 35b9 7e51 2538
00000260: 5ed9 6438 038f 74b4 64e6 4cb5 9ffc 8233
00000270: e09e 82b7 ee05 9434 a5d6 7438 40ff 6eb6
00000280: 6260 8137 afa0 58b8 600a ddb5 18d5 73b5
00000290: 8f1e 14b3 50d6 e338 4709 6936 226f 81b8
000002a0: 74b2 b4b7 95e9 9b39 f589 bdb8 3824 6937
000002b0: 2191 f2b9 0e68 5d37 ab87 5139 8162 eeb3
000002c0: 0198 c538 9e15 1ab4 e048 01b8 3e85 42b6
000002d0: 9262 2b38 78fd c2b7 7320 7737 0132 e2b8
000002e0: 0cfc 0ab6 d4a8 9037 5315 8bb2 3894 b2b5
000002f0: 79a8 0037 85d6 25b7 1415 74b6 976a d5b5
00000300: cb8c 6fb8 acda e0b5 1e66 16b8 150d 3838
00000310: a0f0 7938 3bec 5cb3 4256 7038 10f5 0538
00000320: 43cc 1cb8 ce66 9eb7 ca27 cd38 d978 02b8
00000330: 269c 7536 0cba 11b9 9d75 1638 9c95 f2b3
00000340: 123e 10b4 5c1d 3038 6b50 9937 e73d 74b8
00000350: fc4c f0b7 ccd8 e938 b032 32b8 3019 cf37
00000360: 1244 31b9 a3f5 7f37 6f36 b638 82ac 46b4
00000370: ee1d 5c38 c36c 7cb5 f8d8 5fb7 f848 6637
00000380: 2e2d c7b7 2d0e 82b7 575a fa36 807f 4eb7
00000390: b211 5cb5 85cd eab6 8993 3fb2 d410 82b6
000003a0: 1ef5 b9b5 c1dc 8eb6 5b78 ecb7 eb62 2bb6
000003b0: 2c7a 58b8 226b 2f37 4d4c 87b7 f0da ff37
000003c0: 46a8 8c38 3768 c6b2 21ca 7938 8b33 12b5
000003d0: 19ef d3b7 d46e 9535 3cf0 b8b7 62a3 8cb6
000003e0: cd58 4a37 0941 c4b7 0cdd dbb5 4202 9336
000003f0: b023 feb2 a974 9b37 c562 fab3 108d d3b6
-3.499766e-07 1.389429e-05 -9.118377e-06 8.479563e-06 3.888795e-06 -1.4155488e-05 3.970204e-06 -6.701328e-06
2.6311113e-06 -2.481556e-06 -5.722272e-08 1.2405013e-05 -5.351525e-07 -2.101082e-05 -7.714436e-06 4.723178e-05
-4.5324625e-05 -6.15193e-07 -0.000104548875 -2.997933e-06 0.00012317258 -6.235762e-08 -6.7769235e-09 -3.0547342e-10
-5.7001097e-07 -4.361169e-09 9.685203e-07 -1.6119689e-08 -8.530109e-08 -3.4060559e-09 -1.5200604e-07 -1.2996277e-07
-2.8101e-10 2.0962968e-06 -1.2683485e-08 -1.4558095e-05 -6.277309e-07 6.3568245e-05 -1.9272359e-06 -3.031327e-06
-4.315001e-05 -4.7365276e-07 -1.8400486e-06 -4.373774e-08 6.868471e-05 1.6870026e-05 -5.8782844e-05 -8.076207e-06
9.728223e-06 -3.5665264e-05 1.1012113e-05 -6.841385e-05 -1.1001477e-05 7.579266e-05 -1.4806417e-07 1.576945e-06
1.8452085e-05 -1.9788993e-05 -3.3577705e-06 -1.3401551e-06 -1.8445311e-05 2.6813517e-05 -7.3930246e-06 3.192027e-06
3.5451689e-07 -6.380906e-08 -5.967032e-06 4.2217485e-05 -1.4524477e-05 1.056717e-06 4.3765696e-05 -2.70401e-05
1.6777743e-05 -5.7691068e-05 2.3642024e-06 -8.0827107e-07 -1.5083842e-07 -6.9534053e-06 2.9951663e-05 -3.397369e-05
-1.6143473e-05 0.00020867567 -2.4567076e-05 5.5507644e-06 -0.00026965258 8.314261e-06 9.9028046e-05 -2.3023603e-07
2.9110151e-05 1.32660725e-05 -3.0582836e-05 -4.3660625e-06 8.2191655e-05 -3.5136018e-05 -4.0999053e-06 -0.00014736406
-4.8057117e-08 9.711803e-05 -8.898288e-08 1.342184e-06 1.4507488e-06 -3.491445e-06 -4.198903e-06 3.3149434e-05
-1.9788942e-05 -1.4620184e-06 -4.3125594e-05 1.8567623e-06 3.4306504e-05 -3.874335e-08 1.1075065e-06 1.0109067e-05
-1.850104e-05 -1.4165657e-05 1.834709e-05 -1.7702e-05 1.967722e-05 -2.2074246e-05 2.2867813e-05 3.9688106e-07
-6.258699e-08 3.685319e-05 3.2354852e-05 -3.0169673e-05 1.1106599e-05 0.00031953616 -2.2860462e-05 2.7602764e-06
-0.0003586252 -9.171349e-06 1.838975e-05 -1.7414293e-07 -3.2976184e-06 4.074591e-09 1.8365407e-06 -4.4746066e-06
0.000100126505 -7.001877e-06 3.240364e-07 -0.00011923098 7.522806e-06 2.4197692e-05 -6.600257e-09 2.846234e-05
4.398995e-05 -4.5331642e-05 -3.0970343e-05 0.00011580577 -4.706323e-05 1.4380924e-05 -0.0001730229 3.941496e-05
5.4561875e-05 -2.2776298e-07 -7.6331185e-07 6.099548e-08 -1.557119e-05 2.7571463e-07 5.8374037e-05 -3.5613339e-06
1.542288e-05 -5.164806e-05 -1.6468803e-06 -9.0834646e-07 -3.4486728e-08 0.00010864122 3.4725106e-06 -6.1718994e-05
-2.154077e-05 0.00029737936 -9.037919e-05 1.3896315e-05 -0.00046265966 1.3196854e-05 0.00019982333 -1.11006564e-07
9.422005e-05 -1.4350232e-07 -3.0823867e-05 -2.898581e-06 4.0861378e-05 -2.3244633e-05 1.4729902e-05 -0.00010785834
-2.0710313e-06 1.7244754e-05 -1.6191427e-08 -1.3305171e-06 7.66862e-06 -9.884713e-06 -3.6371102e-06 -1.5900758e-06
-5.7113164e-05 -1.6752942e-06 -3.585789e-05 4.3881202e-05 5.9590326e-05 -5.1437592e-08 5.7300793e-05 3.1937903e-05
-3.7383532e-05 -1.888294e-05 9.782573e-05 -3.1106963e-05 3.6598735e-06 -0.00013897585 3.5872323e-05 -1.1296217e-07
-1.3433626e-07 4.1989013e-05 1.8276469e-05 -5.8231784e-05 -2.8646078e-05 0.00011150687 -4.2485713e-05 2.4688052e-05
-0.00016905394 1.5256376e-05 8.688575e-05 -1.8502945e-07 5.247996e-05 -9.4035585e-07 -1.3342353e-05 1.3726058e-05
-2.3743687e-05 -1.5503809e-05 7.4610975e-06 -1.2308243e-05 -8.1982137e-07 -6.997669e-06 -1.1151209e-08 -3.876261e-06
-1.3854913e-06 -4.257629e-06 -2.8189437e-05 -2.5538563e-06 -5.1612195e-05 1.0455757e-05 -1.6128784e-05 3.050032e-05
6.7070636e-05 -2.3097625e-08 5.9554473e-05 -5.4464243e-07 -2.5264499e-05 1.113362e-06 -2.2046377e-05 -4.1913454e-06
1.2060814e-05 -2.3395305e-05 -1.6381105e-06 4.3812042e-06 -2.958572e-08 1.8531764e-05 -1.1659498e-07 -6.304712e-06
