model_personalization/Android/mnist/app/src/androidTest/assets/mnist.tflite (tflite, 840888 bytes, 8 tensors)

arith.constant f4 [128]
0.057447687 -0.0064976956 -0.0044084997 0.002656299 0.04095206 -0.050676737 0.07076578 0.049457
0.056595493 -0.007322661 -0.026853986 0.11147484 -0.014473538 0.13406852 -0.020685306 -0.13377395
0.020076359 -0.06315023 -0.024658224 0.092658944 0.055907026 0.1517071 -0.10198164 0.08965577
-8.5655076e-05 0.06617447 0.07378111 0.009733916 0.03981 -0.018248623 0.08972211 0.031097943
0.04000507 -0.021122962 -0.020931872 0.047425166 -0.013582769 0.08385559 0.06716973 -0.0005685768
-0.057609167 0.041374236 0.048258763 -0.024887543 0.010321832 0.055175196 -0.020339986 0.07451106
-0.08105534 0.055994924 0.039145548 -0.036748327 0.0155270975 0.00225298 0.0142895235 0.08013711
-0.008206653 0.0071196505 0.056768626 -0.0020730158 -0.070844986 0.023034664 0.025998276 -0.00039516191
-0.0061373203 0.11307211 0.027520146 -0.012026072 0.07287005 0.01754798 0.18464372 0.014604269
0.11525256 0.0093931025 0.05585983 -0.03877752 0.023368921 -0.029098287 0.09377909 -0.038864024
-0.06863703 0.026512522 0.09212302 0.11879224 -0.01782511 0.14905211 0.08581228 -0.017740594
0.06118294 0.06713044 -0.07294574 0.050087836 0.011812983 -0.037795335 -0.028587017 0.03390161
0.08987891 0.024548138 -0.032419764 -0.029318236 -0.0040325043 -0.0023366285 0.0078031486 0.1115019
0.03927157 0.006097282 0.1344448 0.12874603 -0.024227673 -0.002375474 0.09494075 0.010265184
0.047510006 0.028748404 0.01708984 0.12505333 -0.0003115568 -0.0047853496 0.054105546 0.051910635
-0.101453684 0.124354556 -0.006900614 0.023783434 0.015560426 -0.042144243 -0.0010679158 0.11092332
00000000: 444e 6b3d 9fea d4bb 2d75 90bb 4d15 2e3b
00000010: 59bd 273d 6992 4fbd a6ed 903d 6c93 4a3d
00000020: add0 673d eff2 efbb e4fc dbbc ec4c e43d
00000030: 6b22 6dbc 4249 093e 3b74 a9bc 0afc 08be
00000040: 2d77 a43c e854 81bd 0b00 cabc f9c3 bd3d
00000050: c4fe 643d 1b59 1b3e c0db d0bd 729d b73d
00000060: b8a1 b3b8 7b86 873d 8d1a 973d 017b 1f3c
00000070: d00f 233d 237e 95bc 3ac0 b73d 1dc1 fe3c
00000080: 5bdc 233d 100a adbc 5179 abbc e440 423d
00000090: 438a 5ebc 7bbc ab3d 4990 893d 8b0c 15ba
000000a0: 97f7 6bbd 0878 293d fbaa 453d f6e0 cbbc
000000b0: e71c 293c 63ff 613d 0ba0 a6bc 4199 983d
000000c0: 5800 a6bd ef5a 653d 1557 203d 6a85 16bd
000000d0: 5e65 7e3c bba6 133b 9b1e 6a3c ed1e a43d
000000e0: 3375 06bc f54b e93b 3886 683d 6fdb 07bb
000000f0: 2d17 91bd 31b3 bc3c 56fa d43c bc2d cfb9
00000100: 931b c9bb 5a92 e73d ee71 e13c 0009 45bc
00000110: e53c 953d c8c0 8f3c 3e13 3d3e be46 6f3c
00000120: 8909 ec3d 87e5 193c 47cd 643d 2dd5 1ebd
00000130: 2e70 bf3c 885f eebc 400f c03d e22f 1fbd
00000140: 9291 8cbd ca30 d93c feaa bc3d 5949 f33d
00000150: f705 92bc 1ea1 183e 59be af3d b954 91bc
00000160: f69a 7a3d af7b 893d 9364 95bd e728 4d3d
00000170: 3e8b 413c 48cf 1abd 522f eabc 6adc 0a3d
00000180: 6f12 b83d 2d19 c93c 96ca 04bd cc2c f0bc
00000190: 1923 84bb 1f22 19bb 8eb1 ff3b 1c5b e43d
000001a0: 3adb 203d b5cb c73b e6ab 093e 00d6 033e
000001b0: 1d79 c6bc d7ad 1bbb 4c70 c23d 4d2f 283c
000001c0: da99 423d c681 eb3c feff 8b3c fb0d 003e
000001d0: 7258 a3b9 6cce 9cbb c79d 5d3d 3fa0 543d
000001e0: f3c6 cfbd 9aad fe3d 8c1e e2bb 7ad5 c23c
000001f0: 28f1 7e3c 719f 2cbd 4ff9 8bba c42b e33d

arith.constant1 f4 [784, 128]
-0.007175207 0.020012744 -0.01992365 0.044757687 0.05327096 0.04860788 0.031287745 -0.019475408
0.06279274 0.023970246 -0.07812863 -0.056597635 0.05656808 -0.0044999644 -0.056771427 0.05365052
0.01724168 0.03249318 -0.039594743 0.029019095 0.033970393 0.052736767 0.021202572 -0.0038579702
-0.040076964 0.033654734 -0.07322571 -0.025796596 0.028762296 0.030789338 0.045260288 -0.07966861
0.060201325 0.04276435 -0.050576925 -0.07293732 0.015886314 -0.047395427 -0.06741819 0.0038986206
-0.06133975 -0.0012094975 0.07351581 -0.05957728 -0.027680628 0.025423214 0.016217582 0.020504534
0.035156645 0.06201508 0.029772475 0.06419482 0.05541783 0.037262216 -0.07387869 -0.021957304
0.07172104 0.0040655658 -0.051925905 0.017485075 0.011992648 -0.06409422 0.03334093 0.037828267
0.006933324 0.029182866 0.026650421 0.009439953 0.04588189 -0.07979064 0.018840685 0.0704752
0.04138288 -0.017713651 -0.035670538 -0.029783651 0.029138215 0.006757863 -0.05060224 0.031949364
-0.014491908 0.035021678 -0.0646174 -0.06649285 0.043578163 -0.07774414 -0.006707683 0.03598796
-0.04422764 -0.055154417 0.011617832 -0.050201803 -0.06826818 0.029179074 0.042044036 -0.03679063
-0.044209752 -0.07774569 -0.011077017 -0.03296687 -0.04257375 -0.031307954 -0.026654113 -0.014349967
0.0645593 0.023671411 0.07270431 0.036711402 -0.06688375 0.063157655 -0.007822655 -0.019033723
0.013779581 -0.06698646 0.024376065 0.074496605 0.0383398 0.035547294 0.01456698 0.046203576
-0.06817422 -0.06861254 0.0056637228 -0.06620233 -0.004088521 -0.035212066 -0.04547852 -0.049657352
0.020632207 0.072385706 -0.055089846 -0.028054323 -0.01853615 -0.0727256 -0.0140358135 -0.052843705
-0.056231733 -0.061434742 0.051948898 -0.073005155 -0.071571745 0.025803402 0.06834672 -0.066702455
0.04623992 -0.0036571026 0.0509466 0.04074321 -0.041003596 -0.02740794 0.04625886 -0.03781003
-0.07190678 -0.012237161 0.05281686 -0.02585018 -0.03550995 -0.022307869 -0.010814674 0.081099354
0.07380771 -0.010345273 -0.036650334 -0.028810278 0.054757066 0.031163514 -0.012309387 0.021225154
0.05659362 -0.0037386566 -0.014562316 -0.054362185 -0.025934342 -0.07191672 -0.07256552 0.015040845
-0.0318426 -0.023109328 -0.04053538 -0.031655908 -0.06612165 0.05446475 0.0689886 0.03632783
0.018779851 -0.03950006 -0.02992919 0.039372526 0.054831974 -0.03726353 -0.017894521 0.05408915
0.027657233 -0.009211704 0.08098859 -0.03512874 -0.03915327 0.062739156 -0.014842145 0.03567309
-0.07019625 0.078791074 -0.01885933 -0.028692797 -0.042147767 0.07068954 -0.010042846 0.028986022
-0.03523829 -0.045144796 -0.075852685 0.028004915 -0.04129483 -0.043323185 0.02421163 0.038447537
0.010697849 0.041485257 0.02251301 0.046033315 0.020809516 0.042624533 0.01121565 0.018649332
-0.051599436 -0.016371533 -0.015785195 0.021548435 0.043271944 0.050020777 -0.049768373 0.033164524
-0.0011284128 0.060794257 -0.04998964 -0.06797762 0.06959189 0.039618395 0.024036847 0.07232673
0.07275907 -0.008869566 -0.066137716 -0.07913692 0.029991902 -0.00734739 -0.060171485 -0.055614263
-0.002338715 -0.026128944 0.021288686 0.005029276 0.039647035 0.008013055 -0.08013681 -0.018544577
00000000: 001e ebbb c4f1 a33c ec36 a3bc d653 373d
00000010: a632 5a3d 0e19 473d 9427 003d e48a 9fbc
00000020: 7b99 803d 405d c43c e701 a0bd ecd2 67bd
00000030: eeb3 673d 7074 93bb 2889 68bd a6c0 5b3d
00000040: 6c3e 8d3c 9217 053d 192e 22bd 74b9 ed3c
00000050: 8a24 0b3d 8202 583d 04b1 ad3c 00d6 7cbb
00000060: be27 24bd 8cd9 093d 5cf7 95bd 6253 d3bc
00000070: e89e eb3c ec39 fc3c da62 393d 4c29 a3bd
00000080: aa95 763d ac29 2f3d c029 4fbd 2960 95bd
00000090: 0424 823c b521 42bd 8c12 8abd 0080 7f3b
000000a0: 643f 7bbd 0088 9eba 758f 963d 4e07 74bd
000000b0: 7cc2 e2bc 5844 d03c bcda 843c 20f9 a73c
000000c0: 6a00 103d 8603 7e3d 68e5 f33c 9378 833d
000000d0: cefd 623d 44a0 183d b64d 97bd cedf b3bc
000000e0: 7be2 923d 7038 853b 42b0 54bd dc3c 8f3c
000000f0: d07c 443c d543 83bd 8090 083d d0f1 1a3d
00000100: f030 e33b e810 ef3c fc51 da3c 08aa 1a3c
00000110: a6ee 3b3d 4669 a3bd c857 9a3c 4d55 903d
00000120: 1881 293d 381c 91bc 451b 12bd d8fc f3bc
00000130: 44b3 ee3c 1071 dd3b 4b44 4fbd 56dd 023d
00000140: 786f 6dbc e472 0f3d 2156 84bd 672d 88bd
00000150: 047f 323d 5238 9fbd 20cc dbbb 1c68 133d
00000160: 0b28 35bd 99e9 61bd b858 3e3c 68a0 4dbd
00000170: 30d0 8bbd f408 ef3c 5e36 2c3d c6b1 16bd
00000180: 4915 35bd 2239 9fbd 607c 35bc 4508 07bd
00000190: d061 2ebd c53c 00bd ba59 dabc 201c 6bbc
000001a0: ab37 843d 8cea c13c ffe5 943d b25e 163d
000001b0: 59fa 88bd cd58 813d 982a 00bc 9cec 9bbc
000001c0: c0c3 613c 3230 89bd 50b0 c73c ad91 983d
000001d0: 320a 1d3d 0a9a 113d 58aa 6e3c f63f 3d3d
000001e0: ed9e 8bbd bb84 8cbd c096 b93b 1695 87bd
000001f0: 00f9 85bb 873a 10bd af47 3abd 8265 4bbd
00000200: e004 a93c f53e 943d e4a5 61bd 2ed2 e5bc
00000210: 20d9 97bc 29f1 94bd 78f6 65bc a472 58bd
00000220: 3f53 66bd ffa2 7bbd 5ec8 543d ba83 95bd
00000230: 3594 92bd a861 d33c 5df9 8b3d 4c9b 88bd
00000240: 1266 3d3d 00ac 6fbb 62ad 503d 5ae2 263d
00000250: 63f3 27bd 9e86 e0bc ee79 3d3d b1de 1abd
00000260: dd43 93bd 607e 48bc 7e56 583d c2c3 d3bc
00000270: e272 11bd febe b6bc 0830 31bc 6b17 a63d
00000280: 7f28 973d 387f 29bc a91e 16bd 8803 ecbc
00000290: f248 603d a04a ff3c 50ad 49bc 60e0 ad3c
000002a0: b6ce 673d 4004 75bb c896 6ebc e2aa 5ebd
000002b0: 4274 d4bc 1349 93bd 3b9d 94bd e06d 763c
000002c0: 636d 02bd c64f bdbc 6d08 26bd a0a9 01bd
000002d0: ca6a 87bd 6e16 5f3d e549 8d3d 7ecc 143d
000002e0: 34d8 993c d1ca 21bd 102e f5bc 1645 213d
000002f0: 7e97 603d a5a1 18bd 8897 92bc 968c 5d3d
00000300: 6c91 e23c b0ec 16bc 59dd a53d 27e3 0fbd
00000310: 2e5f 20bd 637d 803d 782c 73bc f21d 123d
00000320: 0dc3 8fbd 375d a13d e27e 9abc 280d ebbc
00000330: 23a3 2cbd adc5 903d c08a 24bc 1874 ed3c
00000340: 0656 10bd c0e9 38bd a758 9bbd 906a e53c
00000350: c524 29bd a773 31bd 7857 c63c 2a7b 1d3d
00000360: 0846 2f3c 72ec 293d 346d b83c 6e8d 3c3d
00000370: b878 aa3c 1097 2e3d d8c1 373c 7cc6 983c
00000380: ee59 53bd 981d 86bc f44f 81bc 5886 b03c
00000390: ec3d 313d 96e2 4c3d ecd9 4bbd 86d7 073d
000003a0: 40e7 93ba 6603 793d f0c1 4cbd da37 8bbd
000003b0: 3186 8e3d e646 223d ece8 c43c 0920 943d
000003c0: b502 953d a851 11bc 3673 87bd 8a12 a2bd
000003d0: 94b1 f53c 60c2 f0bb 6076 76bd c8cb 63bd
000003e0: 2045 19bb 5e0c d6bc 9c65 ae3c a0cc a43b
000003f0: ee64 223d 3049 033c c51e a4bd ccea 97bc

arith.constant2 f4 [11]
-0.16969728 0.09602999 0.07456313 -0.097873114 -0.033344153 0.21259281 0.00662318 0.15365748
-0.08015733 -0.033909936 -0.12848882
00000000: 20c5 2dbe 5fab c43d 8eb4 983d b371 c8bd
00000010: e193 08bd eeb1 593e 4307 d93b 6358 1d3e
00000020: 8729 a4bd 25e5 0abd 9392 03be

arith.constant3 f4 [128, 11]
-0.4494153 0.1071958 0.19076772 0.38243595 -0.38566735 0.35621378 -0.26787102 0.25119916
-0.3973855 -0.20577386 -0.17949173 -0.10219664 -0.35119227 -0.3193308 0.00019244888 0.11313086
-0.19314386 0.07552682 -0.014320295 0.30751312 0.24133883 -0.1728522 0.14226778 0.45347407
0.117867954 0.24578236 0.37920436 -0.91387236 0.14813322 0.025099412 -0.36718804 0.024787853
-0.11526897 0.024590595 -0.11162232 -0.49716294 0.5098234 0.037593763 0.34781185 0.08362534
0.27526504 -0.034625098 -0.17674859 -0.025809271 -0.030791454 0.14446872 -0.01860834 -0.069622956
0.050496258 0.7376255 -0.05866155 -0.08139335 -0.64955795 -0.07529924 0.19167802 -0.31202683
-0.28746706 -0.5539845 0.5387452 -0.011335633 0.412169 0.09120234 -0.68024224 0.14372557
0.5686142 0.0452611 -0.05202194 0.47382933 0.059716176 -0.08515978 -0.41626427 0.20630604
-0.09507709 0.08651293 -0.41606602 0.112945475 0.14662832 -0.25058955 0.09041709 -0.22960746
-0.020887677 0.24195604 0.2556543 0.005993622 0.12143335 0.2572908 0.31970856 -0.058506753
0.029933281 0.24212694 -0.11466539 -0.21551198 0.29803935 -0.0013847467 -0.38267502 0.07605377
-0.4733156 0.5132321 -0.24693003 -0.36035904 0.20898181 0.3395469 0.24826655 -0.0051436406
-0.29241246 -0.11275984 0.52773243 0.2678945 -0.54461104 -0.068813205 0.24014197 -0.09846242
-0.04025468 0.34753895 -0.46680352 0.28577313 0.30973253 -0.55117846 0.38792062 -0.21306984
-0.17921154 -0.36795336 -0.29480007 -0.01608767 -0.07419101 0.11383727 0.46286976 -0.017472208
-0.2957246 0.2615712 -1.1999757e-05 0.096098535 0.13976297 -0.13096926 0.3779007 -0.37276492
-0.16479987 -0.43011814 0.08988413 -0.32402632 0.32887995 0.45371413 0.123395845 -0.10413436
0.10603583 0.8466625 -0.27631947 0.27443922 -0.031973653 0.31345278 -0.6160261 -0.47811276
0.13662112 -0.109506786 -0.020242425 -0.16924669 0.027377887 0.23029514 0.3053578 -0.094960704
-0.15777573 0.14864053 0.179878 -0.28101334 0.092989966 -0.015449597 0.21964976 -0.21420427
0.481184 -0.08359961 -0.4746328 0.24346031 0.439203 0.06921346 -0.5032607 -0.09620974
-0.032592915 -0.21443945 0.0723713 -0.021933304 -0.6033814 0.39297777 -0.14556362 0.120459735
0.35016432 0.1397908 0.13573429 0.22576447 -0.2641344 0.17426108 0.45255095 -0.49553314
-0.018327588 -0.0885564 0.13922998 -0.41817978 0.28908283 0.1129737 -0.10063299 0.4793992
0.33689114 0.4067245 -0.301047 -0.18244658 -0.19732632 0.5422432 -0.5769807 -0.49223503
-0.14384404 0.19692048 0.45690802 -0.43643522 0.27784383 -0.14910765 0.047323495 0.32013547
0.2237034 -0.5639777 -0.5680629 0.17320363 -0.023545457 0.26281148 0.10815375 0.04151811
-0.34405008 0.3212416 -0.017776003 0.13416705 0.008026887 -0.3018087 -0.20140445 -0.26458943
0.18850227 0.36395434 -0.6819947 -0.2815206 -0.58083785 0.4631699 0.097715884 0.37592676
0.0864382 -0.1653235 0.38369066 0.1826628 0.7605269 0.16978735 -0.89909446 -0.39812145
-0.48402122 0.026880285 -0.29903066 0.41118896 0.13433217 0.12822613 -0.05910021 0.052974887
00000000: c319 e6be 7989 db3d 9d58 433e a5ce c33e
00000010: 3176 c5be a761 b63e 6426 89be 2d9d 803e
00000020: 1d76 cbbe 62b6 52be aecc 37be 794c d1bd
00000030: 79cf b3be 547f a3be 1acc 4939 27b1 e73d
00000040: 81c7 45be cead 9a3d ac9f 6abc 5c72 9d3e
00000050: 8721 773e 2b00 31be a5ae 113e c12d e83e
00000060: c164 f13d 5fae 7b3e 1327 c23e 8af3 69bf
00000070: 3cb0 173e 489d cd3c 1200 bcbe e50f cb3c
00000080: 2312 ecbd 3772 c93c 3e9a e4bd 248c febe
00000090: c983 023f ebfb 193d 6514 b23e c343 ab3d
000000a0: 8aef 8c3e 0cd3 0dbd 95fd 34be f76d d3bc
000000b0: 5c3e fcbc 9cef 133e 8470 98bc 7b96 8ebd
000000c0: 2ad5 4e3d 06d5 3c3f 1847 70bd 8fb1 a6bd
000000d0: 6e49 26bf 7d36 9abd 3e47 443e fbc1 9fbe
000000e0: e22e 93be eed1 0dbf 35eb 093f 17b9 39bc
000000f0: d107 d33e 4bc8 ba3d 5b24 2ebf cc2c 133e
00000100: b390 113f b463 393d f514 55bd c299 f23e
00000110: f398 743d 4068 aebd 9720 d5be e441 533e
00000120: c7b7 c2bd b12d b13d 9b06 d5be f54f e73d
00000130: bc25 163e 464d 80be 982c b93d 381e 6bbe
00000140: a21c abbc 53c3 773e 1fe5 823e 2566 c43b
00000150: 0cb2 f83d 9fbb 833e d7b0 a33e c7a4 6fbd
00000160: a436 f53c 20f0 773e b0d5 eabd 2caf 5cbe
00000170: 9d98 983e 6480 b5ba fbed c3be 14c2 9b3d
00000180: 6c56 f2be 2e63 033f 3adb 7cbe fb80 b8be
00000190: 54ff 553e 17d9 ad3e 9639 7e3e fc8b a8bb
000001a0: 16b7 95be a2ee e6bd 7919 073f 7829 893e
000001b0: a16b 0bbf f0ed 8cbd c7e7 753e aaa6 c9bd
000001c0: 17e2 24bd a0f0 b13e df00 efbe db50 923e
000001d0: 4395 9e3e 081a 0dbf 889d c63e fb2e 5abe
000001e0: 3b83 37be 6264 bcbe 09f0 96be 4aca 83bc
000001f0: 75f1 97bd 8423 e93d 44fd ec3e e021 8fbc
00000200: 3769 97be a9ec 853e 9052 49b7 4fcf c43d
00000210: 061e 0f3e ce1c 06be 337c c13e 0bdb bebe
00000220: 4cc1 28be 7238 dcbe 2c15 b83d c7e6 a5be
00000230: f462 a83e 384d e83e f6b6 fc3d 6544 d5bd
00000240: 5029 d93d e0be 583f bf79 8dbe 4c83 8c3e
00000250: cef6 02bd e27c a03e e3b3 1dbf 32cb f4be
00000260: 68e6 0b3e 1845 e0bd 71d3 a5bc 014f 2dbe
00000270: 9747 e03c 7dd2 6b3e dc57 9c3e c27a c2bd
00000280: f68f 21be 3935 183e f031 383e fbe0 8fbe
00000290: 8671 be3d 4e20 7dbc deeb 603e 5d58 5bbe
000002a0: c05d f63e 4636 abbd 1203 f3be a94d 793e
000002b0: 37df e03e c9bf 8d3d b1d5 00bf 9d09 c5bd
000002c0: 2680 05bd 0496 5bbe 6737 943d 79ad b3bc
000002d0: 3477 1abf 6234 c93e a10e 15be 98b3 f63d
000002e0: bd48 b33e 5225 0f3e eefd 0a3e cd2e 673e
000002f0: a03c 87be 7f71 323e c2b4 e73e 85b6 fdbe
00000300: bd23 96bc 0f5d b5bd 4e92 0e3e a91b d6be
00000310: aa02 943e c15e e73d ab18 cebd d073 f53e
00000320: ff7c ac3e 323e d03e d522 9abe 47d3 3abe
00000330: e90f 4abe 73d0 0a3f 02b5 13bf 3b06 fcbe
00000340: da4b 13be 86a5 493e d9ef e93e 7074 dfbe
00000350: 8c41 8e3e adaf 18be 48d6 413d cce8 a33e
00000360: 8112 653e d860 10bf 926c 11bf 4b5c 313e
00000370: 67e2 c0bc 3a8f 863e b77f dd3d e50e 2a3d
00000380: 5527 b0be c779 a43e fb9e 91bc 1663 093e
00000390: 3483 033c ac86 9abe f83c 4ebe 4478 87be
000003a0: bd06 413e 3958 ba3e 3497 2ebf 7823 90be
000003b0: cab1 14bf 9b24 ed3e 441f c83d 7979 c03e
000003c0: 8306 b13d 904a 29be 1a73 c43e f50b 3b3e
000003d0: e4b1 423f bcdc 2d3e 0e2b 66bf 93d6 cbbe
000003e0: a1d1 f7be 0b34 dc3c 8c1a 99be 5c87 d23e
000003f0: 5f8e 093e b64d 033e 1013 72bd 32fc 583d

arith.constant4 f4 [128]
-0.00015620387 5.522332e-05 4.6097257e-06 -1.9210497e-06 -3.596831e-05 0.00010998587 -2.88053e-06 1.751323e-05
7.624569e-05 7.410796e-06 4.042995e-05 1.42384715e-05 0.00010425352 9.527934e-05 -3.4717774e-05 -3.854468e-05
-4.3857285e-06 -2.7983358e-05 -8.757953e-05 -5.6175366e-05 -6.493978e-05 -4.114766e-05 -1.264207e-05 -0.00015749742
-5.272459e-06 -2.3053522e-05 2.2926635e-05 3.839482e-05 -0.00015986852 -1.5857331e-05 -7.293184e-05 7.042829e-05
-2.4785604e-05 4.574223e-05 5.392831e-05 -7.897596e-05 0.00011267717 3.2043197e-05 2.4216428e-05 -0.00011983778
-2.00858e-05 8.090326e-08 8.357605e-06 0.00015987974 -1.971982e-05 -2.1479269e-05 1.351892e-05 3.7757414e-05
-4.189563e-05 -9.57179e-07 -4.1600565e-06 4.7881736e-06 9.177842e-05 5.760099e-06 -2.8233895e-09 -1.3849812e-05
3.1973283e-05 1.4504357e-05 4.009573e-05 -8.6541286e-07 4.8728874e-05 5.515441e-05 1.1493465e-05 9.3805946e-05
1.3177593e-06 -0.00017254382 2.4064695e-05 1.4862034e-06 -4.6266246e-05 -2.8220356e-05 -1.9008323e-05 -1.0272991e-05
3.768454e-05 6.518756e-05 2.9670735e-05 -1.9615472e-08 -0.000101699094 -0.000117208016 -6.659692e-05 4.0678613e-05
-5.830367e-06 -0.00012616161 -3.8190363e-05 8.210981e-06 1.6344661e-07 -1.1054105e-05 5.71167e-05 1.7948748e-06
-3.1144875e-05 3.6833622e-05 -1.439049e-05 1.1207819e-05 -1.6267923e-05 -1.981938e-05 5.0690163e-05 -2.9844467e-05
-9.882155e-05 -4.3398933e-05 -4.196106e-06 -7.1332033e-06 3.0455214e-05 -3.0274023e-05 7.109001e-05 -5.2259802e-05
1.012815e-06 3.1840347e-05 -4.813938e-06 -1.847279e-05 -8.92128e-06 2.1101123e-06 7.843666e-05 5.771197e-05
-3.937639e-06 1.6885648e-05 -4.1974712e-05 -2.9349187e-05 -1.4919228e-05 -6.8162194e-06 4.925351e-07 3.6842468e-06
7.899882e-05 -4.196976e-05 1.1189464e-05 -0.00014885925 -1.2944005e-05 9.711374e-06 6.0424027e-05 -3.9695897e-06
00000000: a8ca 23b9 979f 6738 3ead 9a36 62eb 00b6
00000010: aedc 16b8 37a8 e638 214f 41b6 60e9 9237
00000020: 18e6 9f38 41aa f836 5493 2938 c5e1 6e37
00000030: afa2 da38 b5d0 c738 ed9d 11b8 09ab 21b8
00000040: 1f29 93b6 cebd eab7 e7aa b7b8 d79d 6bb8
00000050: 4730 88b8 f795 2cb8 4719 54b7 e425 25b9
00000060: 14ea b0b6 1063 c1b7 9352 c037 200a 2138
00000070: 61a2 27b9 5c05 85b7 fcf2 98b8 e6b2 9338
00000080: aeea cfb7 58db 3f38 1531 6238 e59f a5b8
00000090: 184d ec38 1f66 0638 6224 cb37 6b51 fbb8
000000a0: ed7d a8b7 0abd ad33 a437 0c37 64a5 2739
000000b0: fe6b a5b7 612e b4b7 52cf 6237 b75d 1e38
000000c0: 17b9 2fb8 6c78 80b5 9d96 8bb6 19aa a036
000000d0: 2a79 c038 e046 c136 9805 42b1 7d5c 68b7
000000e0: 0d1b 0638 bd57 7337 762c 2838 b84e 68b5
000000f0: 3b62 4c38 9955 6738 0ed4 4037 afb9 c438
00000100: dddd b035 e1ec 34b9 8ade c937 8f79 c735
00000110: 010e 42b8 c1ba ecb7 1074 9fb7 295a 2cb7
00000120: 770f 1e38 4eb5 8838 6be5 f837 e17e a8b2
00000130: 4947 d5b8 93cd f5b8 f3a9 8bb8 549e 2a38
00000140: 79a2 c3b6 404a 04b9 972e 20b8 e5c1 0937
00000150: dd7f 2f34 0575 39b7 9790 6f38 6ee7 f035
00000160: 8ea1 02b8 cd7d 1a38 af6e 71b7 3709 3c37
00000170: 1977 88b7 cb41 a6b7 269c 5438 815a fab7
00000180: 6a3e cfb8 4007 36b8 47cc 8cb6 c059 efb6
00000190: 137a ff37 f8f4 fdb7 2916 9538 8931 5bb8
000001a0: 0ff0 8735 508c 0538 6a87 a1b6 04f6 9ab7
000001b0: 9bac 15b7 749b 0d36 5c7e a438 c20f 7238
000001c0: 1020 84b6 a7a5 8d37 010e 30b8 e632 f6b7
000001d0: 994d 7ab7 e1b6 e4b6 c136 0435 e13e 7736
000001e0: 2bac a538 b008 30b8 62ba 3b37 1a17 1cb9
000001f0: 142a 59b7 09ee 2237 ce6f 7d38 8432 85b6

arith.constant5 f4 [784, 128]
0.0 0.0 0.0 0.0 0.0 0.0 0.0 0.0
0.0 0.0 0.0 0.0 0.0 0.0 0.0 0.0
0.0 0.0 0.0 0.0 0.0 0.0 0.0 0.0
0.0 0.0 0.0 0.0 0.0 0.0 0.0 0.0
0.0 0.0 0.0 0.0 0.0 0.0 0.0 0.0
0.0 0.0 0.0 0.0 0.0 0.0 0.0 0.0
0.0 0.0 0.0 0.0 0.0 0.0 0.0 0.0
0.0 0.0 0.0 0.0 0.0 0.0 0.0 0.0
0.0 0.0 0.0 0.0 0.0 0.0 0.0 0.0
0.0 0.0 0.0 0.0 0.0 0.0 0.0 0.0
0.0 0.0 0.0 0.0 0.0 0.0 0.0 0.0
0.0 0.0 0.0 0.0 0.0 0.0 0.0 0.0
0.0 0.0 0.0 0.0 0.0 0.0 0.0 0.0
0.0 0.0 0.0 0.0 0.0 0.0 0.0 0.0
0.0 0.0 0.0 0.0 0.0 0.0 0.0 0.0
0.0 0.0 0.0 0.0 0.0 0.0 0.0 0.0
0.0 0.0 0.0 0.0 0.0 0.0 0.0 0.0
0.0 0.0 0.0 0.0 0.0 0.0 0.0 0.0
0.0 0.0 0.0 0.0 0.0 0.0 0.0 0.0
0.0 0.0 0.0 0.0 0.0 0.0 0.0 0.0
0.0 0.0 0.0 0.0 0.0 0.0 0.0 0.0
0.0 0.0 0.0 0.0 0.0 0.0 0.0 0.0
0.0 0.0 0.0 0.0 0.0 0.0 0.0 0.0
0.0 0.0 0.0 0.0 0.0 0.0 0.0 0.0
0.0 0.0 0.0 0.0 0.0 0.0 0.0 0.0
0.0 0.0 0.0 0.0 0.0 0.0 0.0 0.0
0.0 0.0 0.0 0.0 0.0 0.0 0.0 0.0
0.0 0.0 0.0 0.0 0.0 0.0 0.0 0.0
0.0 0.0 0.0 0.0 0.0 0.0 0.0 0.0
0.0 0.0 0.0 0.0 0.0 0.0 0.0 0.0
0.0 0.0 0.0 0.0 0.0 0.0 0.0 0.0
0.0 0.0 0.0 0.0 0.0 0.0 0.0 0.0
00000000: 0000 0000 0000 0000 0000 0000 0000 0000
00000010: 0000 0000 0000 0000 0000 0000 0000 0000
00000020: 0000 0000 0000 0000 0000 0000 0000 0000
00000030: 0000 0000 0000 0000 0000 0000 0000 0000
00000040: 0000 0000 0000 0000 0000 0000 0000 0000
00000050: 0000 0000 0000 0000 0000 0000 0000 0000
00000060: 0000 0000 0000 0000 0000 0000 0000 0000
00000070: 0000 0000 0000 0000 0000 0000 0000 0000
00000080: 0000 0000 0000 0000 0000 0000 0000 0000
00000090: 0000 0000 0000 0000 0000 0000 0000 0000
000000a0: 0000 0000 0000 0000 0000 0000 0000 0000
000000b0: 0000 0000 0000 0000 0000 0000 0000 0000
000000c0: 0000 0000 0000 0000 0000 0000 0000 0000
000000d0: 0000 0000 0000 0000 0000 0000 0000 0000
000000e0: 0000 0000 0000 0000 0000 0000 0000 0000
000000f0: 0000 0000 0000 0000 0000 0000 0000 0000
00000100: 0000 0000 0000 0000 0000 0000 0000 0000
00000110: 0000 0000 0000 0000 0000 0000 0000 0000
00000120: 0000 0000 0000 0000 0000 0000 0000 0000
00000130: 0000 0000 0000 0000 0000 0000 0000 0000
00000140: 0000 0000 0000 0000 0000 0000 0000 0000
00000150: 0000 0000 0000 0000 0000 0000 0000 0000
00000160: 0000 0000 0000 0000 0000 0000 0000 0000
00000170: 0000 0000 0000 0000 0000 0000 0000 0000
00000180: 0000 0000 0000 0000 0000 0000 0000 0000
00000190: 0000 0000 0000 0000 0000 0000 0000 0000
000001a0: 0000 0000 0000 0000 0000 0000 0000 0000
000001b0: 0000 0000 0000 0000 0000 0000 0000 0000
000001c0: 0000 0000 0000 0000 0000 0000 0000 0000
000001d0: 0000 0000 0000 0000 0000 0000 0000 0000
000001e0: 0000 0000 0000 0000 0000 0000 0000 0000
000001f0: 0000 0000 0000 0000 0000 0000 0000 0000
00000200: 0000 0000 0000 0000 0000 0000 0000 0000
00000210: 0000 0000 0000 0000 0000 0000 0000 0000
00000220: 0000 0000 0000 0000 0000 0000 0000 0000
00000230: 0000 0000 0000 0000 0000 0000 0000 0000
00000240: 0000 0000 0000 0000 0000 0000 0000 0000
00000250: 0000 0000 0000 0000 0000 0000 0000 0000
00000260: 0000 0000 0000 0000 0000 0000 0000 0000
00000270: 0000 0000 0000 0000 0000 0000 0000 0000
00000280: 0000 0000 0000 0000 0000 0000 0000 0000
00000290: 0000 0000 0000 0000 0000 0000 0000 0000
000002a0: 0000 0000 0000 0000 0000 0000 0000 0000
000002b0: 0000 0000 0000 0000 0000 0000 0000 0000
000002c0: 0000 0000 0000 0000 0000 0000 0000 0000
000002d0: 0000 0000 0000 0000 0000 0000 0000 0000
000002e0: 0000 0000 0000 0000 0000 0000 0000 0000
000002f0: 0000 0000 0000 0000 0000 0000 0000 0000
00000300: 0000 0000 0000 0000 0000 0000 0000 0000
00000310: 0000 0000 0000 0000 0000 0000 0000 0000
00000320: 0000 0000 0000 0000 0000 0000 0000 0000
00000330: 0000 0000 0000 0000 0000 0000 0000 0000
00000340: 0000 0000 0000 0000 0000 0000 0000 0000
00000350: 0000 0000 0000 0000 0000 0000 0000 0000
00000360: 0000 0000 0000 0000 0000 0000 0000 0000
00000370: 0000 0000 0000 0000 0000 0000 0000 0000
00000380: 0000 0000 0000 0000 0000 0000 0000 0000
00000390: 0000 0000 0000 0000 0000 0000 0000 0000
000003a0: 0000 0000 0000 0000 0000 0000 0000 0000
000003b0: 0000 0000 0000 0000 0000 0000 0000 0000
000003c0: 0000 0000 0000 0000 0000 0000 0000 0000
000003d0: 0000 0000 0000 0000 0000 0000 0000 0000
000003e0: 0000 0000 0000 0000 0000 0000 0000 0000
000003f0: 0000 0000 0000 0000 0000 0000 0000 0000

arith.constant6 f4 [11]
5.01388e-05 1.7764112e-05 -3.1889176e-05 -5.4638317e-06 8.9487694e-05 -6.63074e-05 1.5373203e-05 -0.00019037552
6.00802e-06 0.00011545263 -1.8863311e-07
00000000: 204c 5238 2404 9537 bec0 05b8 f555 b7b6
00000010: 57ab bb38 840e 8bb8 b4f5 8037 8a9f 47b9
00000020: 8098 c936 291f f238 138b 4ab4

arith.constant7 f4 [128, 11]
9.328814e-06 7.167709e-06 -9.35191e-06 1.6674795e-06 0.0002312722 -4.3400145e-05 1.6117405e-05 -0.00027124758
5.3701247e-06 5.3135613e-05 -5.977202e-08 0.00016358949 1.9997819e-05 -8.4016225e-05 -3.1583822e-05 0.00020376683
-0.00015170823 3.5142875e-05 -0.00045035567 2.3164936e-05 0.00027234497 -3.429257e-07 -4.0149343e-06 4.7673973e-07
-2.5364886e-06 -5.2686687e-07 -2.6682385e-06 -3.1431723e-06 1.3351737e-05 -3.7099161e-07 -4.1839175e-07 -1.426716e-07
-6.6961614e-09 -9.999095e-07 -1.991114e-08 -5.3830337e-07 -2.9451876e-06 -1.1023611e-06 -2.5316086e-07 3.0572326e-06
1.03649676e-08 2.8099598e-06 -1.7376546e-08 -1.3440001e-09 -1.6309971e-06 -7.1310275e-08 -1.2567202e-06 -5.1130496e-07
-8.7096805e-07 -4.49961e-05 -3.297514e-06 -1.0343536e-05 6.1344764e-07 6.2403335e-05 -3.832065e-08 1.5964106e-07
-4.2705267e-07 -6.210789e-06 4.294437e-05 -2.3353723e-06 -8.5144384e-05 9.404719e-07 -5.99374e-05 7.3474253e-06
0.00010278057 -1.1747599e-07 1.5779485e-06 3.68377e-05 -1.03325065e-05 -6.2915724e-06 1.740701e-05 -9.572259e-06
-1.6756408e-06 -1.5642405e-05 -8.789672e-06 -3.4347036e-06 -8.390885e-08 2.0175166e-05 1.6500628e-05 -1.5930562e-05
-7.942543e-06 6.9998336e-05 -2.4948427e-05 -4.714828e-06 -0.00010327514 -1.242694e-06 5.1470193e-05 -9.014908e-08
-6.254288e-07 7.568451e-06 -3.285932e-06 -3.684665e-06 7.87668e-06 -1.0559728e-05 -1.6896511e-06 -6.6395616e-05
-3.7288019e-06 7.460276e-05 -7.805082e-08 -5.14572e-06 3.800815e-05 -1.1557179e-05 -5.3022436e-06 9.889662e-06
-2.3992425e-05 1.3490295e-05 -1.7126851e-05 6.7229244e-06 -4.9030045e-06 -8.3651734e-08 2.2859782e-05 1.1085763e-05
-2.334461e-05 2.294156e-05 -1.3805429e-05 -8.1686805e-05 1.8745535e-05 -6.755049e-05 2.7520908e-05 8.336606e-05
-1.3234661e-07 7.911783e-05 1.27343665e-05 -5.0277584e-05 -3.803122e-06 3.1397183e-05 -0.00010695416 2.8736202e-05
-0.00018451342 1.7247225e-05 0.00017655527 -2.3979652e-07 9.565539e-05 1.1415992e-05 -4.0774186e-05 -6.892461e-06
5.588245e-05 -6.1173276e-05 2.9439714e-05 -0.00014033316 1.4243092e-05 4.2643696e-05 -1.0741576e-07 9.9299075e-05
1.5684315e-06 -5.128891e-05 -9.865094e-06 -2.0245538e-05 -4.1982494e-05 4.7301015e-05 -2.6288877e-05 -6.2184386e-06
7.82675e-06 -1.05885874e-07 9.7773736e-05 5.729833e-06 -4.7419293e-05 -1.193636e-05 0.0001088374 -6.502729e-05
1.8328194e-05 -0.00024782552 6.3378693e-06 0.00013537728 -1.7586233e-07 -3.9388156e-06 5.2996005e-05 -1.1901338e-05
-1.8734389e-05 3.7702852e-05 -1.7005243e-05 9.8630535e-06 -5.6282923e-05 1.3356511e-05 -5.9485546e-06 -1.071878e-07
-2.3948974e-07 -2.0124216e-07 -3.7870468e-06 -2.1625769e-05 -1.4088422e-06 -3.6279755e-05 -1.6131293e-07 -1.4906489e-05
2.7089847e-05 5.1600047e-05 -7.989814e-08 0.00011256714 -9.0981314e-07 -4.563297e-05 2.1282258e-05 3.9330724e-05
-5.2578664e-05 4.0294635e-05 -0.00016168799 -5.3833437e-06 5.2831703e-05 -1.13737386e-07 -3.4648165e-06 2.5671277e-05
-4.953229e-06 6.9606057e-07 1.8702345e-05 -1.4005924e-05 8.136843e-06 -3.0415458e-05 6.5767335e-07 -9.799647e-07
-4.4808708e-08 -2.936616e-06 -4.634046e-07 -1.7911487e-06 5.0775566e-06 -5.5323443e-07 -1.1504266e-05 5.2483174e-06
-1.1329974e-05 3.2932242e-06 1.4979573e-05 -2.0019712e-08 -2.4532706e-06 8.212868e-06 -8.566867e-07 -5.4908566e-07
1.2511476e-05 -1.6415059e-05 4.4957164e-06 -1.7796834e-05 8.581954e-06 4.298119e-06 -2.921009e-08 -3.0070777e-07
1.1597977e-05 -8.1511425e-06 -2.4057256e-06 6.820925e-05 -1.0519784e-06 -1.2275342e-06 -7.398813e-05 -1.1682787e-06
8.551356e-06 -6.5102846e-08 5.0976272e-05 2.2853472e-05 -2.7871998e-05 -7.778968e-06 0.00017394172 -6.294163e-05
2.0356922e-06 -0.00026939422 3.335486e-05 8.498717e-05 -1.6241957e-07 0.00012042321 -2.0784462e-06 -5.1500625e-05
00000000: f382 1c37 2782 f036 26e6 1cb7 29ce df35
00000010: a981 7239 8d08 36b8 dd33 8737 3c36 8eb9
00000020: 0531 b436 eedd 5e38 045c 80b3 3889 2b39
00000030: fdc0 a737 de31 b0b8 df78 04b8 3eaa 5539
00000040: de13 1fb9 6066 1338 b71d ecb9 5252 c237
00000050: 86c9 8e39 591b b8b4 06b8 86b6 9cf2 ff34
00000060: 8b38 2ab6 046e 0db5 fd0f 33b6 4aef 52b6
00000070: 4601 6037 b32c c7b4 539f e0b4 4531 19b4
00000080: 0f14 e6b1 a134 86b5 0f09 abb2 ed7f 10b5
00000090: f0a5 45b6 d7f4 93b5 2aea 87b4 db2a 4d36
000000a0: 9c11 3232 be92 3c36 6e43 95b2 cdb7 b8b0
000000b0: a2e8 dab5 3d23 99b3 94ac a8b5 9c40 09b5
000000c0: 78cc 69b5 32ba 3cb8 dc4a 5db6 2689 2db7
000000d0: cdab 2435 89de 8238 0096 24b3 cd69 2b34
000000e0: ac45 e5b4 4566 d0b6 2b1f 3438 64b9 1cb6
000000f0: 8b8f b2b8 bd74 7c35 4b65 7bb8 e789 f636
00000100: e68b d738 1c47 fcb3 e6c9 d335 2e82 1a38
00000110: c759 2db7 321c d3b6 4505 9237 8a98 20b7
00000120: 94e6 e0b5 cf37 83b7 5b77 13b7 c27f 66b6
00000130: 6131 b4b3 d73d a937 d46a 8a37 9fa2 85b7
00000140: f640 05b7 12cc 9238 5748 d1b7 1034 9eb6
00000150: 6b95 d8b8 a4ca a6b5 b3e1 5738 fb97 c1b3
00000160: 24e3 27b5 80f4 fd36 e283 5cb6 1046 77b6
00000170: 1526 0437 b029 31b7 f8c7 e2b5 e03d 8bb8
00000180: 543c 7ab6 0d74 9c38 e49c a7b3 66a9 acb6
00000190: f16a 1f38 b5e5 41b7 ede9 b1b6 c6eb 2537
000001a0: 5743 c9b7 6054 6237 a2ab 8fb7 7b95 e136
000001b0: 7d84 a4b6 07a4 b3b3 02c3 bf37 fdfc 3937
000001c0: 2bd4 c3b7 a072 c037 de9d 67b7 454f abb8
000001d0: bb3f 9d37 e5a9 8db8 b3dc e637 d0d4 ae38
000001e0: 291b 0eb4 10ec a538 b0a5 5537 25e1 52b8
000001f0: 2339 7fb6 78b0 0338 944c e0b8 860e f137
00000200: f279 41b9 22ae 9037 b221 3939 62bd 80b4
00000210: 999a c838 5087 3f37 f304 2bb8 ca45 e7b6
00000220: 5363 6a38 274a 80b8 4ef5 f637 6526 13b9
00000230: 9df5 6e37 52dc 3238 70ac e6b3 c93e d038
00000240: e582 d235 0c1f 57b8 4282 25b7 f6d4 a9b7
00000250: 5c16 30b8 1465 4638 ef86 dcb7 fba7 d0b6
00000260: a34f 0337 6063 e3b3 e00b cd38 e442 c036
00000270: 14e4 46b8 4742 48b7 a23f e438 435f 88b8
00000280: 7fbf 9937 94ee 81b9 e2a9 d436 10f4 0d39
00000290: abd4 3cb4 2b2a 84b6 0748 5e38 dcab 47b7
000002a0: cb27 9db7 2123 1e38 7ba6 8eb7 7e79 2537
000002b0: 5411 6cb8 c715 6037 b299 c7b6 1e2f e6b3
000002c0: 3893 80b4 0615 58b4 f824 7eb6 fc68 b5b7
000002d0: 7317 bdb5 172b 18b8 5c35 2db4 e216 7ab7
000002e0: 013f e337 216d 5838 7894 abb3 0612 ec38
000002f0: e239 74b5 0766 3fb8 4d87 b237 0bf7 2438
00000300: e987 5cb8 0902 2938 ca8a 29b9 92a2 b4b6
00000310: 9c97 5d38 ca3f f4b3 1885 68b6 a658 d737
00000320: ea33 a6b6 ebd8 3a35 fbe2 9c37 fcfa 6ab7
00000330: 7983 0837 b324 ffb7 f88a 3035 5587 83b5
00000340: b273 40b3 ae12 45b6 d8c9 f8b4 6767 f0b5
00000350: e15f aa36 fb81 14b5 7202 41b7 b41a b036
00000360: de15 3eb7 2901 5d36 c750 7b37 d0f7 abb2
00000370: dea2 24b6 00ca 0937 10f7 65b5 e164 13b5
00000380: 61e8 5137 12b3 89b7 e9d9 9636 694a 95b7
00000390: 36fb 0f37 9038 9036 abe9 fab2 f670 a1b4
000003a0: ef94 4237 e4c0 08b7 0d72 21b6 900b 8f38
000003b0: b431 8db5 c1c1 a4b5 132a 9bb8 c0cd 9cb5
000003c0: cb77 0f37 abce 8bb3 5bcf 5538 75b5 bf37
000003d0: a9ce e9b7 6a82 02b7 2064 3639 88ff 83b8
000003e0: ed9c 0836 7b3d 8db9 82e6 0b38 243b b238
000003f0: 8d65 2eb4 b88b fc38 6f7b 0bb6 6002 58b8
